dataset/best_model.pth (torch, 30886 bytes, 5 tensors)

model.0.weight f4 [64, 76]
0.2328166 0.08426775 0.012784235 0.06625626 -0.025704874 -0.043055255 -0.015288943 -0.09653885
-0.066529356 0.05741607 -0.07379371 -0.17349103 -0.14834324 -0.08300064 -0.20558003 -0.02402962
-0.0062946463 -0.037206892 0.15922725 -0.24077083 -0.034954417 0.04339048 0.073239826 -0.06284081
-0.036273357 0.040512092 -0.014047074 -0.09676547 0.101976626 0.067229934 -0.05302915 0.10828954
0.12970899 -0.05529657 0.05008805 0.08206043 0.17961563 0.020814428 0.060264274 0.008145209
0.14017497 0.19606714 -0.009936307 0.20964395 0.12028319 0.1850854 0.19578476 0.039564118
0.026335467 0.009674609 0.16984595 0.15082502 0.16885509 0.10450138 0.053213324 0.17456101
0.11767182 0.17050314 0.11311345 0.07017583 0.08485663 0.14212564 0.01905727 -0.009615991
-0.032140847 0.11263361 0.07398705 0.0057169115 0.07428646 0.025515705 -0.011264813 0.08095468
0.024913985 -0.020925049 0.12784132 0.049657535 -0.752232 0.017734764 0.06581347 -0.048799258
0.014878024 0.04630118 -0.07913106 -0.23808493 0.013181228 0.03327389 -0.21968739 -0.060218535
-0.06575036 0.050963685 -0.15434396 0.048505392 -0.005202845 -0.035118967 0.044536635 0.049430564
0.016215105 -0.008546493 0.062035933 -0.031111417 0.02225562 0.0059845084 0.0022312235 -0.00024622097
0.005345811 0.016716387 0.037871532 -0.060984023 -0.07178686 -0.018572757 0.123095065 -0.1028058
0.05383287 0.09065707 -0.050055772 0.024024332 0.019200511 -0.035096172 -0.0803948 0.034760904
0.022287253 -0.034620207 0.035985958 -0.049709246 -0.078590654 -0.08268267 -0.058239624 -0.030605707
-0.06768249 -0.039069865 -0.0562901 -0.037574712 -0.018206708 -0.06573111 -0.047902405 -0.051949747
-0.04961105 0.00062345393 0.054751765 0.0015248478 -0.011352349 0.02447979 -0.064148754 -0.041698705
-0.044216607 -0.036271833 -0.03369297 -0.04944224 -0.02058522 0.0093777515 -0.003099158 0.02659577
-0.081774615 -0.07946078 -0.007400082 0.10382511 0.099393405 0.055783905 0.021724427 -0.010089595
0.07550927 -0.10058869 0.03649566 0.009991951 -0.08444031 0.024943365 0.06300891 0.007601745
-0.0111234095 0.07588824 0.12720992 0.120280705 0.15002775 0.09923656 0.077989385 0.034769252
0.120035015 -0.09351659 -0.06683822 -0.046581183 -0.03275907 0.13956016 0.1011809 0.065832466
0.022929866 -0.14952298 0.01276306 0.012891279 0.10043793 0.107282326 -0.04495419 -0.04284506
0.06314824 -0.13853225 0.11696357 0.09199711 0.03424571 -0.030057922 0.069003806 -0.020477712
-0.016517665 0.14973937 0.16718026 0.09095208 -0.02396473 -0.039804835 0.08687131 -0.040574536
0.069113605 -0.024273949 0.109540865 -0.062488608 0.13711452 -0.05858833 0.17613654 0.012415771
0.1499746 0.02146266 0.068247154 -0.027584601 0.0765914 -0.025121553 0.03957779 0.15041532
-0.07911647 -0.09351445 -0.01578156 0.08964251 0.11938962 -0.052882347 -0.02224449 0.054972876
-0.008114967 0.031139674 -0.0030843252 -0.03941106 -0.068645306 -0.03599785 0.062868364 -0.081022084
0.051895045 -0.024609571 0.016210208 -0.017638259 0.057534173 -0.025843926 0.03580872 -0.003036224
-0.005484488 0.107867844 -0.026205186 0.11759936 0.14154847 0.009862155 0.07791068 -0.11095389
00000000: 7a67 6e3e 9294 ac3d f874 513c 5db1 873d
00000010: 0793 d2bc b55a 30bd 7a7e 7abc 29b6 c5bd
00000020: 8b40 88bd 1d2d 6b3d 2821 97bd a2a7 31be
00000030: 4ae7 17be 3dfc a9bd 9283 52be c4d9 c4bc
00000040: 5243 cebb 4166 18bd 780c 233e a18c 76be
00000050: 5d2c 0fbd 37ba 313d c3fe 953d afb2 80bd
00000060: 5f93 14bd 02f0 253d b325 66bc fa2c c6bd
00000070: 1fd9 d03d d9af 893d 1835 59bd e8c6 dd3d
00000080: 6fd2 043e a87e 62bd 2129 4d3d 4c0f a83d
00000090: 29ed 373e 0583 aa3c acd7 763d 7c73 053c
000000a0: 078a 0f3e d3c5 483e e4cb 22bc e7ac 563e
000000b0: 0857 f63d 0787 3d3e cd7b 483e fc0d 223d
000000c0: 7abd d73c 4082 1e3c 19ec 2d3e e071 1a3e
000000d0: 59e8 2c3e d204 d63d 37f6 593d 1fc0 323e
000000e0: ecfd f03d 6098 2e3e 06a8 e73d 58b8 8f3d
000000f0: 50c9 ad3d 6289 113e fe1d 9c3c 648c 1dbc
00000100: 1fa6 03bd 73ac e63d 8686 973d ee54 bb3b
00000110: 8023 983d 5006 d13c 0d90 38bc 91cb a53d
00000120: 6a18 cc3c 026b abbc d6e8 023e b365 4b3d
00000130: 4792 40bf 7f48 913c 36c9 863d bbe1 47bd
00000140: f5c2 733c 4ea6 3d3d 770f a2bd 89cc 73be
00000150: 14f6 573c 344a 083d bbf5 60be b6a7 76bd
00000160: 20a8 86bd 4cbf 503d 580c 1ebe 97ad 463d
00000170: a17c aabb e8d8 0fbd 0c6c 363d b477 4a3d
00000180: 8ad5 843c 9706 0cbc 6419 7e3d 5fdd febc
00000190: 6b51 b63c b219 c43b b839 123b 3817 81b9
000001a0: ea2b af3b cef0 883c 2e1f 1b3d 62ca 79bd
000001b0: fd04 93bd e525 98bc 4419 fc3d d98b d2bd
000001c0: db7f 5c3d 6aaa b93d 4807 4dbd adce c43c
000001d0: 644a 9d3c 01c1 0fbd 07a6 a4bd 7361 0e3d
000001e0: c293 b63c ebcd 0dbd 0366 133d ec9b 4bbd
000001f0: 23f4 a0bd 8855 a9bd ac8c 6ebd d2b8 fabc
00000200: 1e9d 8abd b907 20bd 7390 66bd f1e7 19bd
00000210: 3c26 95bc 089e 86bd 5035 44bd 42c9 54bd
00000220: f534 4bbd 496f 233a 6343 603d 67dd c73a
00000230: 34ff 39bc d789 c83c 6c60 83bd 43cc 2abd
00000240: 791c 35bd c691 14bd a401 0abd f283 4abd
00000250: 56a2 a8bc 24a5 193c 3e1b 4bbb 5fdf d93c
00000260: 7379 a7bd 55bc a2bd 637c f2bb 42a2 d43d
00000270: c58e cb3d aa7d 643d 6df7 b13c d44e 25bc
00000280: 9ba4 9a3d 7101 cebd 797c 153d 48b5 233c
00000290: 0bef acbd 0756 cc3c d10a 813d 0f18 f93b
000002a0: f63e 36bc 4b6b 9b3d 5143 023e bb55 f63d
000002b0: e0a0 193e 8a3c cb3d e6b8 9f3d 346a 0e3d
000002c0: ebd4 f53d a085 bfbd 7ae2 88bd e9cb 3ebd
000002d0: 602e 06bd dce8 0e3e ef37 cf3d 2cd3 863d
000002e0: 6ad7 bb3c 8d1c 19be 271c 513c f135 533c
000002f0: 67b2 cd3d d6b6 db3d e221 38bd 4d7e 2fbd
00000300: dd53 813d 66db 0dbe 998a ef3d fb68 bc3d
00000310: 3b45 0c3d 083c f6bc de51 8d3d e0c0 a7bc
00000320: 0e50 87bc 4755 193e 4d31 2b3e 1645 ba3d
00000330: ae51 c4bc 650a 23bd 96e9 b13d 7c31 26bd
00000340: 6f8b 8d3d 29da c6bc f656 e03d 0ef4 7fbd
00000350: c067 0c3e 51fa 6fbd 235d 343e 856b 4b3c
00000360: f192 193e 76d2 af3c 2ac5 8b3d 1af9 e1bc
00000370: f4db 9c3d b7cb cdbc 521c 223d 7906 1a3e
00000380: d107 a2bd 8184 bfbd 5548 81bc 7e96 b73d
00000390: 8c82 f43d 299b 58bd 143a b6bc 3d2b 613d
000003a0: a3f4 04bc a118 ff3c 6422 4abb 7e6d 21bd
000003b0: e995 8cbd 7b72 13bd 21c1 803d e8ee a5bd
000003c0: e68f 543d 039a c9bc 45cb 843c 1c7e 90bc
000003d0: f4a8 6b3d a4b6 d3bc 2aac 123d 63fb 46bb
000003e0: 38b7 b3bb d1e9 dc3d 42ac d6bc efd7 f03d
000003f0: 15f2 103e e094 213c a28f 9f3d cb3b e3bd

model.0.bias f4 [64]
0.063002914 -0.007523757 -0.02477773 0.06111515 0.14985861 0.036996104 0.08087802 0.109633096
0.18784134 0.10691329 0.15297198 0.138136 0.1865679 0.03014445 -0.0076681464 0.040508576
-0.08578547 0.03309431 0.09884877 0.02844279 0.2057018 0.19648185 0.07803781 0.20218195
0.20339505 -0.038634457 0.09973486 0.071657956 0.030806053 0.13325547 -0.065717734 0.12969841
0.018863574 0.08731963 0.14962734 0.008498576 0.19679397 0.20756325 0.013609023 0.0417736
0.12382466 0.080542915 0.18009962 0.10852049 0.17232604 0.084610194 0.15957035 0.11806031
0.01711949 0.20560549 0.19716854 0.026630314 0.06687525 0.18207991 -0.01653513 -0.009138507
-0.0072299293 0.13147748 0.1358886 0.120138384 0.16957517 0.05274552 0.14423212 -0.067256324
00000000: ac07 813d d989 f6bb abfa cabc e153 7a3d
00000010: 8974 193e 3a89 173d 60a3 a53d 5187 e03d
00000020: 7b59 403e 5bf5 da3d b0a4 1c3e 8673 0d3e
00000030: a80b 3f3e 7ef1 f63c 1345 fbbb 52ec 253d
00000040: 4bb0 afbd e68d 073d 3971 ca3d db00 e93c
00000050: 7ea3 523e 8a32 493e 4ad2 9f3d c908 4f3e
00000060: cb46 503e 2a3f 1ebd ca41 cc3d 68c1 923d
00000070: fa5c fc3c 1f74 083e 0597 86bd a9cf 043e
00000080: c887 9a3c a2d4 b23d e937 193e 9c3d 0b3c
00000090: 5c84 493e 768b 543e 61f8 5e3c cb1a 2b3d
000000a0: c997 fd3d aff3 a43d 096c 383e fe3f de3d
000000b0: 3d76 303e 1c48 ad3d 6966 233e 9bc9 f13d
000000c0: 2c3e 8c3c 3f8a 523e 8de6 493e d127 da3c
000000d0: e4f5 883d 2873 3a3e ae74 87bc adb9 15bc
000000e0: 0be9 ecbb 08a2 063e 6226 0b3e 1d0b f63d
000000f0: 1da5 2d3e b00b 583d 96b1 133e afbd 89bd

model.2.weight f4 [32, 64]
-0.007163039 0.04938243 -0.084191605 -0.04107017 -0.13542798 0.028000772 -0.046980117 -0.11042735
-0.11335185 0.067127615 -0.07012645 -0.13113226 0.031356346 -0.09415442 -0.082132965 -0.019752236
-0.036274828 -0.09417687 0.036515724 0.014371699 -0.025337191 -0.06715852 -0.06045615 -0.12199752
-0.11333732 -0.057328764 -0.043633677 -0.11270365 -0.05789816 -0.14007993 -0.031088099 -0.06537631
0.07222887 -0.038822297 -0.020132873 0.1046602 -0.05446382 0.0614924 -0.1298857 -0.05966652
-0.014490262 0.06513574 0.011934743 -0.040402234 -0.06548867 0.056208987 0.09256541 -0.026820142
-0.055242646 -0.12227367 0.074099906 -0.038996916 0.087337285 -0.1158119 0.019302009 0.08352011
0.077581756 0.05356914 -0.050112057 0.023848673 0.00041403525 0.05128445 0.042577855 0.0727887
-0.017519591 -0.24483028 0.101636 -0.053223472 0.13928317 0.056488067 0.17264438 0.13709652
0.123683274 0.057689194 0.037850384 0.123169616 0.16264881 0.15422805 -0.016138379 0.14684409
-0.1172684 0.13496345 0.117341496 0.08641602 0.059608757 0.02868485 0.12346865 0.0013966351
0.11168476 -0.05828587 0.06795138 -0.056189083 0.025820129 0.026773704 -0.07288555 0.0680976
-0.06982558 -0.046727095 0.11403817 0.049329616 0.13016713 0.14479302 0.019679395 0.08069658
0.038708564 0.019674726 0.047221296 -0.17839965 -0.0081957625 0.025189951 0.055700593 0.15940858
0.014620996 0.10951322 -0.030672481 -0.014354879 0.11895693 -0.044796012 0.00039865417 0.084654845
-0.055766884 0.08226774 0.052707363 0.082837835 0.07346876 -0.12316851 0.005167961 0.021086583
-0.033887282 -0.100908145 0.104979984 -0.03529345 0.13979836 0.14537936 0.015109635 0.0274485
0.14407527 0.029720679 0.07135596 0.120027155 0.13581933 0.029464552 0.15030284 0.0004102667
-0.0056234403 0.005312741 0.061018027 -0.045578796 0.035655342 0.08408136 0.13647263 0.14645356
0.18909732 -0.015082209 0.07584085 -0.07948442 -0.04966549 0.06336251 0.040784918 0.0562988
0.07017212 -0.049861506 0.067257576 0.16610931 0.13088697 0.20080073 0.020639606 0.056737553
0.025529012 -0.010657432 0.11547214 -0.1798831 0.19496365 0.04748453 0.12884048 0.167138
-0.032528732 0.17185046 0.041125964 0.05420603 0.1514893 0.04869595 0.0810234 0.055740952
-0.029452883 -0.06098407 0.0964629 0.0017190308 -0.01571316 -0.067055665 0.03173319 -0.12878877
0.11781276 -0.18969218 -0.011955904 0.009236588 0.12554838 -0.06188312 0.044333987 0.04425612
-0.068225875 0.08654319 -0.06712132 -0.04818978 0.18543272 0.13053253 -0.027313761 0.16163974
-0.112639405 -0.06591571 0.075710565 -0.07519404 0.19764692 0.16944274 0.016908072 0.07096363
-0.024026634 0.06896064 0.03445576 -0.070768416 0.10457502 0.07988977 0.046924997 0.04358672
-0.01965568 -0.07457693 0.10556161 0.060465243 0.18537511 0.09805962 0.061238393 0.121384405
-0.061188698 -0.03799764 0.0096389325 -0.022768706 0.13868436 -0.11491191 0.15060931 0.119781286
0.0266249 0.07190273 -0.0622679 -0.08544551 0.1875746 0.1330445 -0.10379882 0.013918072
0.13896208 0.07699532 0.088330805 0.0012572375 -0.019437248 -0.1601672 -0.09841071 -0.15359302
00000000: edb7 eabb 3b45 4a3d a66c acbd 3239 28bd
00000010: a2ad 0abe e061 e53c 396e 40bd bc27 e2bd
00000020: 0425 e8bd 347a 893d 759e 8fbd 8947 06be
00000030: 836f 003d 08d4 c0bd 5435 a8bd 71cf a1bc
00000040: ea94 14bd cedf c0bd 8391 153d 4677 6b3c
00000050: f18f cfbc 688a 89bd dea0 77bd d6d9 f9bd
00000060: 661d e8bd 91d1 6abd 3ab9 32bd 2cd1 e6bd
00000070: 9f26 6dbd 1d71 0fbe 78ac febc 04e4 85bd
00000080: bbec 933d 2104 1fbd b2ed a4bc 1658 d63d
00000090: 7415 5fbd 74df 7b3d c200 05be e264 74bd
000000a0: 9068 6dbc e365 853d f189 433c d07c 25bd
000000b0: ec1e 86bd 653b 663d ef92 bd3d eab5 dbbc
000000c0: 1d46 62bd 9e6a fabd b1c1 973d 3bbb 1fbd
000000d0: e4dd b23d ca2e edbd 3f1f 9e3c 970c ab3d
000000e0: 2fe3 9e3d 516b 5b3d 4d42 4dbd 4b5e c33c
000000f0: df12 d939 a50f 523d 1e66 2e3d 3e12 953d
00000100: 3f85 8fbc cab4 7abe 8926 d03d db00 5abd
00000110: 3fa0 0e3e 0860 673d b0c9 303e 0863 0c3e
00000120: a84d fd3d 814b 6c3d 0109 1b3d 5a40 fc3d
00000130: 698d 263e f5ed 1d3e a234 84bc 4c5e 163e
00000140: 6a2a f0bd dc33 0a3e bd50 f03d e2fa b03d
00000150: 5028 743d 7efc ea3c 22dd fc3d 4c0f b73a
00000160: fbba e43d 2abd 6ebd 182a 8b3d 8626 66bd
00000170: bc84 d33c 8754 db3c 0545 95bd c176 8b3d
00000180: b700 8fbd e964 3fbd d88c e93d da0d 4a3d
00000190: 884a 053e 9f44 143e af36 a13c 4044 a53d
000001a0: df8c 1e3d e42c a13c 1e6b 413d 66ae 36be
000001b0: 8547 06bc 285b ce3c 4e26 643d 013c 233e
000001c0: e78c 6f3c 7848 e03d db44 fbbc ba30 6bbc
000001d0: b19f f33d 067c 37bd 7502 d139 855f ad3d
000001e0: d16b 64bd fd7b a83d ade3 573d e2a6 a93d
000001f0: ca76 963d c63f fcbd 0058 a93b c5bd ac3c
00000200: 64cd 0abd eea8 cebd bfff d63d dd8f 10bd
00000210: 4d27 0f3e 54de 143e 678e 773c addb e03c
00000220: 7888 133e c878 f33c 1323 923d ccd0 f53d
00000230: 3914 0b3e a55f f13c fde8 193e 1019 d739
00000240: d644 b8bb 8016 ae3b 0aee 793d d5b0 3abd
00000250: 560b 123d d932 ac3d 7bbf 0b3e ecf7 153e
00000260: baa2 413e 5f1b 77bc 7352 9b3d bac8 a2bd
00000270: 0a6e 4bbd 34c4 813d 160e 273d 9299 663d
00000280: 67b6 8f3d 943b 4cbd 57be 893d 8f18 2a3e
00000290: 3c07 063e b59e 4d3e 6414 a93c a365 683d
000002a0: 3822 d13c 829c 2ebc a87c ec3d 4633 38be
000002b0: 8da4 473e 237f 423d c2ee 033e 3926 2b3e
000002c0: d93c 05bd 91f9 2f3e b373 283d 2407 5e3d
000002d0: 0320 1b3e 6875 473d 99ef a53d a050 643d
000002e0: 2c47 f1bc 6fca 79bd 578e c53d 1a51 e13a
000002f0: e3b8 80bc 7b54 89bd a9fa 013d 34e1 03be
00000300: d147 f13d ab3e 42be b2e2 43bc 0f55 173c
00000310: c18f 003e 2879 7dbd 8e97 353d e845 353d
00000320: 02ba 8bbd 8e3d b13d e776 89bd a662 45bd
00000330: 13e2 3d3e 52aa 053e 1cc1 dfbc e384 253e
00000340: 7daf e6bd d1fe 86bd 240e 9b3d 55ff 99bd
00000350: f463 4a3e 6682 2d3e cc82 8a3c 6155 913d
00000360: 81d3 c4bc 3c3b 8d3d 7c21 0d3d 08ef 90bd
00000370: 6e2b d63d 3f9d a33d 6d34 403d fd87 323d
00000380: f304 a1bc cabb 98bd af30 d83d 67aa 773d
00000390: f9d2 3d3e 7bd3 c83d 1cd5 7a3d 6398 f83d
000003a0: 00a1 7abd 6aa3 1bbd 9dec 1d3c 7085 babc
000003b0: 4603 0e3e ef56 ebbd 5439 1a3e e44f f53d
000003c0: 761c da3c bd41 933d a00c 7fbd 0efe aebd
000003d0: 8e13 403e d13c 083e 7a94 d4bd a008 643c
000003e0: 134c 0e3e b9af 9d3d c8e6 b43d e4c9 a43a
000003f0: dd3a 9fbc df02 24be 8e8b c9bd 7d47 1dbe

model.2.bias f4 [32]
-0.119599335 0.18236777 0.090852425 0.033382084 -0.055929177 0.17023885 0.06113683 -0.0016700206
0.05522543 0.017853413 0.07151485 0.10534065 0.020824952 -0.03564592 0.06869488 0.1557182
0.10647159 -0.039414868 -0.12867339 0.057661816 -0.03871367 0.045464225 -0.1062857 0.11772546
-0.27647755 0.08166763 0.07742005 -0.027338792 0.060356643 0.119860604 0.046480473 0.1846459
00000000: 7ff0 f4bd 9ebe 3a3e d610 ba3d a7bb 083d
00000010: fe15 65bd 1853 2e3e 9d6a 7a3d 98e4 daba
00000020: 0f34 623d 5241 923c 6176 923d d7bc d73d
00000030: 1799 aa3c 7501 12bd e7af 8c3d 9874 1f3e
00000040: c70d da3d 7c71 21bd f5c2 03be cc2e 6c3d
00000050: 3a92 1ebd b238 3a3d 51ac d9bd 0c1a f13d
00000060: 778e 8dbe 5c41 a73d 678e 9e3d 9af5 dfbc
00000070: 8738 773d 7a79 f53d 4f62 3e3d d113 3d3e

model.4.weight f4 [1, 32]
-0.06479124 0.14346482 0.06669221 0.24668778 -0.07106045 0.1637889 -0.1491546 -0.07065281
0.18349898 0.23180534 0.18575156 0.15177616 0.085867174 0.00085622794 -0.16243112 0.06932682
0.22087678 -0.10046403 -0.13830371 0.14409679 -0.01816426 0.10908381 -0.16875888 0.1212444
-0.2794825 0.20057811 0.0050697336 0.08849751 0.16296244 0.21301188 0.12314235 0.09874665
00000000: 45b1 84bd 71e8 123e ed95 883d b99b 7c3e
00000010: 2488 91bd 47b8 273e fcbb 18be 6cb2 90bd
00000020: 28e7 3b3e 615e 6d3e a835 3e3e 366b 1b3e
00000030: 21db af3d 7c74 603a 5854 26be 38fb 8d3d
00000040: 862d 623e 16c0 cdbd 7d9f 0dbe 1c8e 133e
00000050: 37cd 94bc 5567 df3d 21cf 2cbe fc4e f83d
00000060: 5518 8fbe 5964 4d3e 0220 a63b 2f3e b53d
00000070: a0df 263e c91f 5a3e 0e32 fc3d af3b ca3d
