dataset/neural_network.pth (torch, 30926 bytes, 5 tensors)

model.0.weight f4 [64, 76]
0	0x3d26f70d	0.04076295
1	0xbd4360c7	-0.047699716
2	0xbac5f08a	-0.0015101593
3	0xbdd43c62	-0.103630796
4	0xbd3975dd	-0.04527842
5	0x3d3a1687	0.04543164
6	0xbcd6bff2	-0.026214574
7	0xbc82b33b	-0.015954604
8	0xbb94e78e	-0.004544205
9	0xbc828b06	-0.015935432
10	0xbc60b3b0	-0.013714716
11	0xbe74e56a	-0.2391564
12	0x3b093d20	0.0020940974
13	0x3da82f5e	0.082121596
14	0x3d02e049	0.031952176
15	0x3b476681	0.0030426087
16	0x3cfef076	0.03112052
17	0x3d821670	0.06351936
18	0x3d8a1f99	0.06744308
19	0xbd95c143	-0.07312252
20	0x3da81472	0.08207025
21	0xbcb566ad	-0.022143686
22	0x3d8f14db	0.069864
23	0x3d81a08e	0.063294515
24	0xbdf30231	-0.11865652
25	0xbd979f48	-0.07403427
26	0x3dff5168	0.12466699
27	0xbc91f814	-0.017818488
28	0xbe14224e	-0.14466211
29	0x3e022e31	0.12712933
30	0x3e373614	0.17891723
31	0xbc9fed69	-0.019522386
32	0x3e35ed93	0.17766409
33	0x3e5aa9fa	0.21353903
34	0x3c9759b1	0.018475385
35	0x3de91da0	0.11382604
36	0x3d3dd1f0	0.04634279
37	0x3a9c9ca3	0.0011948537
38	0x3d416505	0.04721548
39	0x3d58a300	0.052889824
40	0x3dfd4f87	0.12368684
41	0xbccf3d29	-0.025297718
42	0x3e2cf83d	0.1689157
43	0x3e0d0d30	0.13774562
44	0x3df1dc8a	0.118096426
45	0x3de1b8b2	0.11021556
46	0x3c7f4375	0.015580048
47	0x3e3b6bf7	0.18302904
48	0x3e0bed4a	0.13664737
49	0x3e02c9a9	0.1277224
50	0x3d3efbed	0.046626974
51	0x3d05d306	0.03267195
52	0x3e5baf4d	0.2145359
53	0x3d50362f	0.050832924
54	0x3e053a35	0.13010485
55	0x3de80ff2	0.11331166
56	0x3dc992f1	0.0984248
57	0x3df35d6c	0.11883053
58	0x3cfbbdfe	0.030730244
59	0x3e20d171	0.15704896
60	0x3e264c6a	0.16240087
61	0x3e40a2ee	0.18812153
62	0x3e705dcc	0.2347328
63	0x3cea7074	0.028618075
64	0x3cdc7b45	0.026914248
65	0x3e4648e6	0.19363746
66	0x3e62f4ee	0.22163746
67	0x3e397d1d	0.18114133
68	0x3d75bf49	0.059996877
69	0x3e53750f	0.20650123
70	0x3dc5b419	0.096534915
71	0x3d8160b6	0.06317274
72	0x3d18cb92	0.037303515
73	0x3e5e0e93	0.21685247
74	0x3d46dd9c	0.048551187
75	0x3e024d00	0.12724686
76	0xbcc26e2b	-0.023734173
77	0xbd3dce78	-0.046339482
78	0x3d7dca79	0.06196067
79	0xbdc70d9b	-0.09719392
80	0x3da7bacd	0.08189926
81	0x3c4cad32	0.012492465
82	0xbcc037a2	-0.023464028
83	0xbc73e11d	-0.014885214
84	0xbd718246	-0.05896213
85	0xbda04eae	-0.07827507
86	0xba6ee6ee	-0.00091133907
87	0xbe727ba8	-0.23679984
88	0xbc551103	-0.013004544
89	0xbce239dd	-0.027615482
90	0x3da4e91f	0.08052277
91	0x3cb0c984	0.021580465
92	0x3d957781	0.07298184
93	0xbdb5f3e1	-0.08884407
94	0xbda7a559	-0.081858344
95	0x3e419f06	0.18908319
96	0x3df6aa18	0.120441616
97	0xbd8f58e5	-0.06999377
98	0x3e08b047	0.13348494
99	0x3d70bae1	0.05877197
100	0xbcddae2b	-0.027060589
101	0x3dcbf001	0.099578865
102	0xbc5b5857	-0.013387761
103	0x3e392359	0.1807989
104	0xbe42bb9f	-0.19016884
105	0x3dcafb5a	0.09911223
106	0x3e0e089b	0.1387047
107	0x3e144102	0.14477924
108	0x3d5d6073	0.05404706
109	0x3e443ca4	0.19163758
110	0x3e1c2388	0.15247929
111	0x3e31b78f	0.17355178
112	0x3cd339a6	0.025784325
113	0x3d994732	0.074842826
114	0x3e5db3b3	0.21650581
115	0x3c6237e7	0.0138072735
116	0x3e27af2a	0.16375414
117	0x3d095ece	0.03353768
118	0x3e0b3fd2	0.13598564
119	0x3e22b619	0.15889777
120	0x3dda2662	0.10651852
121	0x3e3fec3a	0.18742457
122	0x3c98600b	0.018600484
123	0x3e4a4fcd	0.19757004
124	0x3e616b9c	0.22013706
125	0x3e2857cd	0.16439743
126	0x3e72f4ae	0.2372615
127	0x3e46065c	0.19338363
128	0x3e449902	0.19198993
129	0x3de29215	0.11063019
130	0x3da6753a	0.08127828
131	0x3da354d8	0.07975167
132	0x3be8a887	0.007100168
133	0x3e2af140	0.16693592
134	0x3dbfbe00	0.093624115
135	0x3d9d6565	0.07685355
136	0x3db3d058	0.08779973
137	0x3de5a22b	0.11212572
138	0x3e67698a	0.22598854
139	0x3dc83bb4	0.097770125
140	0xbc7fc3ef	-0.015610679
141	0x3ca2dfbf	0.019882081
142	0x3bc2839d	0.0059360997
143	0x3e0b5f46	0.13610563
144	0x3d0c67bd	0.03427862
145	0x3d380a1e	0.044931524
146	0x3e4b6fdb	0.19866888
147	0x3e236499	0.15956344
148	0x3da5eda6	0.081019685
149	0x3d895ad8	0.0670678
150	0x3da83516	0.0821325
151	0x3e2e926e	0.17048046
152	0xbe16459d	-0.14674993
153	0x3e0ff180	0.14056969
154	0x3d80805c	0.062744826
155	0x3d88fcc8	0.06688839
156	0xbd061a13	-0.03273971
157	0xbdb315d4	-0.08744398
158	0xbe4fea66	-0.2030426
159	0x3cdc774b	0.026912352
160	0xbe156397	-0.14588772
161	0xbe027d17	-0.1274303
162	0x3d9cd250	0.076573014
163	0xbdb8b9f1	-0.090198405
164	0xbe539c6b	-0.20665137
165	0xbd303297	-0.043016996
166	0x3b9c6069	0.004772235
167	0x3c618ce2	0.013766499
168	0x3d3ce543	0.04611708
169	0xbd563833	-0.05229969
170	0x3e061ce4	0.13096958
171	0xbc8f7229	-0.01751049
172	0xba8838b4	-0.0010392875
173	0xbd0ddd62	-0.034634955
174	0x3a067e93	0.00051305554
175	0xbc225619	-0.009908223
176	0x3d3da95c	0.04630409
177	0xbd452381	-0.048129562
178	0xbda4480d	-0.08021555
179	0xbda718ce	-0.08159028
180	0x3d35d992	0.044396944
181	0x3e219193	0.15778188
182	0x3dd0e3c5	0.101996936
183	0xbbe56707	-0.007000807
184	0x3dcfcad7	0.101461105
185	0xbd327ab4	-0.04357405
186	0x3c89b7ef	0.01681134
187	0x3c816c6b	0.015798768
188	0x3e22f840	0.15915012
189	0xbc3fc6fa	-0.011705155
190	0x3d463e56	0.048399292
191	0x3d8c40c5	0.06848291
192	0x3c3942e7	0.011307455
193	0xbaee4727	-0.0018179164
194	0x3de73aff	0.112905495
195	0x3daa0657	0.083019905
196	0x3e3123a3	0.1729875
197	0x3d02b5f7	0.031911816
198	0x3e270d86	0.16313753
199	0x3dc2a4d1	0.095040925
200	0x3d365664	0.044515982
201	0x3e2968d7	0.165439
202	0x3de0694d	0.109575845
203	0x3d9ffefa	0.07812305
204	0x3e5176b6	0.20455441
205	0x3e1aa35c	0.15101379
206	0x3c9aada3	0.018881625
207	0x3e2162de	0.15760371
208	0x3e758888	0.23977864
209	0x3df14e2c	0.11782488
210	0xbc69e98d	-0.014276874
211	0x3d214e25	0.039381165
212	0x3da35586	0.07975297
213	0x3e0c009c	0.13672107
214	0x3d91fc9b	0.07128259
215	0x3e4b418d	0.19849224
216	0x3e1495f5	0.14510329
217	0x3d719295	0.058977682
218	0x3e2960cd	0.16540833
219	0x3bfd92b4	0.0077384356
220	0x3cf837f7	0.030300124
221	0x3e1a0263	0.15039973
222	0xbc1c0fc2	-0.009525241
223	0x3e33a525	0.17543466
224	0x3e240f3f	0.16021441
225	0x3e31b1d6	0.17352995
226	0x3e47f916	0.19528612
227	0x3e201bc4	0.15635592
228	0x3d2bdf02	0.041960724
229	0x3c3c9c01	0.011511804
230	0xbd131211	-0.0359059
231	0xbdbb5ccf	-0.09148561
232	0xbe0e8642	-0.13918403
233	0xbd0d3980	-0.034478664
234	0xbaabc5c0	-0.0013105199
235	0xbd44096f	-0.04786056
236	0x3cd710cf	0.026253132
237	0xbdb8710f	-0.09005939
238	0xbc5b9976	-0.013403287
239	0x3d5b217e	0.053498738
240	0xbd020d61	-0.03175104
241	0x3df37785	0.11888031
242	0xbce2d07c	-0.027687304
243	0x3d58d678	0.05293891
244	0xbc05d451	-0.008168296
245	0xbd9d698d	-0.07686148
246	0xbd9b850a	-0.075937346
247	0x3e33bc7e	0.17552373
248	0x3b67ace8	0.0035350863
249	0xbe1ab282	-0.15107158
250	0x3d618444	0.05505778
251	0xbd917890	-0.071030736
252	0xbaef598e	-0.0018260942
253	0xbd9e63a8	-0.07733852
254	0x3e1326e0	0.14370298
255	0x3d4dcc00	0.050243378

model.0.bias f4 [64]
0	0x3d860d7c	0.06545541
1	0x3e16099b	0.14652102
2	0x3d3cfc98	0.04613933
3	0x3e0d08a3	0.13772826
4	0xbd4be3b9	-0.04977772
5	0x3e0d0e10	0.13774896
6	0xbd0dfcf7	-0.034665074
7	0x3e401f70	0.18761992
8	0x3e0eae6d	0.13933726
9	0x3e062e94	0.13103706
10	0x3e4755ed	0.19466372
11	0x3da82c6d	0.082115985
12	0x3e51282d	0.20425482
13	0x3d38de89	0.0451341
14	0x3dc47eda	0.095945075
15	0x3e7564a4	0.23964173
16	0x3e4ebfe7	0.20190392
17	0xbe079318	-0.13239706
18	0x3dde60a8	0.108582795
19	0x3da39a5c	0.07988426
20	0x3d903f45	0.07043318
21	0xbe1772db	-0.14789908
22	0x3e1eac46	0.15495405
23	0x3e440094	0.19140846
24	0x3e29cd9b	0.16582339
25	0x3d1e2c98	0.038616747
26	0xbda10499	-0.07862205
27	0x3d99e0b4	0.07513562
28	0x3d2a812f	0.041627105
29	0xbe442af1	-0.19157006
30	0x3e233af2	0.15940455
31	0xbd4934f0	-0.04912275
32	0x3e6ebc27	0.23313962
33	0x3e682378	0.2266978
34	0x3d342162	0.04397715
35	0x3d14fffc	0.03637694
36	0x3e17e578	0.14833629
37	0x3c718006	0.014739996
38	0x3d7e5ef6	0.06210228
39	0x3dfc93ed	0.12332902
40	0x3e48433c	0.19556898
41	0x3e5da4ac	0.21644849
42	0x3db47e38	0.08813137
43	0x3dcc429d	0.09973643
44	0x3db3cb42	0.08779003
45	0x3d0ae04a	0.033905305
46	0x3dea35fc	0.11436078
47	0xbdbc9011	-0.09207166
48	0x3e242c40	0.16032505
49	0xbd9a8da6	-0.075465485
50	0x3e00fbcb	0.12596051
51	0x3dce2b7e	0.10066889
52	0x3e1640b0	0.14673114
53	0x3dc99c88	0.09844309
54	0x3d50bea1	0.050963048
55	0xbc6e913f	-0.014560997
56	0xbcba7631	-0.022761436
57	0x3e0cacf1	0.13737847
58	0x3e1d9abd	0.15391059
59	0x3d0fe022	0.03512586
60	0x3e52f921	0.20602848
61	0x3e288b23	0.16459326
62	0x3d0e2233	0.034700584
63	0x3ca605cd	0.020266438

model.2.weight f4 [32, 64]
0	0x3ccb1316	0.024789374
1	0xbc8c6938	-0.017140016
2	0xbd9a6de8	-0.07540494
3	0xbd9bac1c	-0.07601187
4	0xbdf1182f	-0.11772191
5	0xbdea5f63	-0.11443975
6	0x3d942414	0.07233444
7	0xbdbd12dc	-0.09232113
8	0xbd09bd9c	-0.03362809
9	0xbd06216b	-0.032746714
10	0xbd070bee	-0.03297036
11	0xbd924b4a	-0.071432665
12	0xbe05b337	-0.13056646
13	0x3c029ace	0.007971479
14	0xbd1565fa	-0.036474206
15	0x3cad84df	0.021181522
16	0x3d7d2daa	0.061811127
17	0xbd2d83cb	-0.042362016
18	0xbdbe9ab6	-0.093068525
19	0x3d856c76	0.06514828
20	0x3dc4a16b	0.096011005
21	0xbdc78ce3	-0.09743669
22	0xbdf946a9	-0.121716805
23	0x3da12ed1	0.07870258
24	0xbd8a35bc	-0.0674853
25	0xbc3c5e6d	-0.011497122
26	0x3d4bb66f	0.04973453
27	0xbd0ba699	-0.034094427
28	0xbd367e5c	-0.0445541
29	0x3d233eae	0.039854698
30	0x3d32eacb	0.043680947
31	0x3d52f8e6	0.0515069
32	0xbd1eed4e	-0.03880053
33	0xbcfcb678	-0.030848727
34	0x3b74650d	0.0037291676
35	0xbdecf61e	-0.11570381
36	0xbdb49a44	-0.08818486
37	0x3cf20e08	0.029547706
38	0x3c042580	0.008065581
39	0x3c206930	0.009790704
40	0xbd2fa7f7	-0.042884793
41	0xbd8c393f	-0.06846856
42	0x3d54fc43	0.051998388
43	0x3da8fff6	0.08251946
44	0xbdf7a9ce	-0.120929345
45	0x3dc40df3	0.09572973
46	0x3c82403e	0.015899774
47	0xbcd9d9dd	-0.026593143
48	0xba98a707	-0.0011646458
49	0xbd812784	-0.06306365
50	0x3d4d1ab5	0.050074298
51	0x3cdcda2a	0.026959497
52	0x3d1f799b	0.03893433
53	0x3db863ff	0.09003448
54	0xbc9882f5	-0.018617133
55	0xbd01e933	-0.031716537
56	0xbd7660ab	-0.060150784
57	0xbdb7f31d	-0.08981917
58	0x3db6505c	0.08902046
59	0xbde0485c	-0.109513015
60	0xbcc4bdea	-0.02401634
61	0x3d11f524	0.035634175
62	0x3d845c0f	0.06462871
63	0xbdf7d966	-0.12102012
64	0x3db4d6e9	0.08830053
65	0x3d644577	0.05573031
66	0x3d2cae04	0.04215814
67	0xbcabeab6	-0.020985942
68	0x3d6743c4	0.05646111
69	0x3d9e95d2	0.0774342
70	0xbd211fd5	-0.039336998
71	0xbdbf1335	-0.09329835
72	0x3d0d8dff	0.034559246
73	0x3d9f1ac0	0.07768774
74	0xbbcf7bc5	-0.006331893
75	0xbbd587a6	-0.0065164147
76	0xbd11e519	-0.035618875
77	0x3d11c53c	0.035588488
78	0xbe0070aa	-0.12542978
79	0xbd824b3e	-0.063620076
80	0xbde32c08	-0.11092383
81	0xbd804935	-0.06263963
82	0xbde9021d	-0.11377356
83	0x3d479e8e	0.048735194
84	0x3d221969	0.039575014
85	0xbd7ba1b3	-0.061433505
86	0xbcebbc15	-0.028776208
87	0x3c7ae30a	0.015312919
88	0xbddb619c	-0.10711977
89	0xbd32ac61	-0.043621425
90	0x3dabb12b	0.083834015
91	0xbcc6fa24	-0.024289198
92	0x3d16fee8	0.03686419
93	0x3dd8bf82	0.10583402
94	0xbd501475	-0.05080076
95	0x3da2f9fa	0.079578355
96	0xbd01b60e	-0.03166776
97	0xbdfeb04f	-0.12435972
98	0xbd2a5040	-0.04158044
99	0xbd7824fb	-0.060582142
100	0xbdda0399	-0.106452174
101	0xbd3a3202	-0.045457847
102	0xbd764d6e	-0.060132436
103	0xbc5b4677	-0.013383499
104	0xbd87f650	-0.06638777
105	0xbd01a020	-0.031646848
106	0xbdaf3ec3	-0.08556893
107	0xbdfff3d2	-0.12497677
108	0xbcfa5818	-0.030559584
109	0xbbd0c7f3	-0.006371492
110	0x3da7312f	0.08163678
111	0xbdbc1d31	-0.09185255
112	0xbd353350	-0.04423839
113	0xbe0365e7	-0.12831841
114	0xbddc35ba	-0.10752435
115	0xbdf682cb	-0.120366655
116	0xbcc0f3cf	-0.023553757
117	0x3d78e0e9	0.060761366
118	0xbde5d287	-0.112217955
119	0xbdfb3b8c	-0.12267217
120	0x3c81034f	0.015748648
121	0x3d82bb98	0.06383437
122	0x3d1ce6a8	0.03830591
123	0x3da34328	0.079717934
124	0x3daee75b	0.08540221
125	0xbe0e30fe	-0.13885877
126	0x3cf039c1	0.029324414
127	0xbe05507b	-0.13018982
128	0x3e389787	0.18026553
129	0x3e3d8f41	0.18511678
130	0x3d838f87	0.0642386
131	0x3d3383cd	0.043826867
132	0xbce3e03a	-0.02781688
133	0x3d8e9ba7	0.06963282
134	0x3d5cf562	0.053944953
135	0x3e292fb3	0.16522102
136	0x3d19076e	0.0373606
137	0x3e13b639	0.14424981
138	0x3daf7ae4	0.085683614
139	0x3e1979f6	0.1498793
140	0x3d129079	0.03578231
141	0x3cdc1c12	0.026868854
142	0xbdb38af5	-0.08766738
143	0x3c7519c1	0.0149597535
144	0xbcd0027b	-0.025391808
145	0xbd02552f	-0.03181952
146	0x3c99dc22	0.018781725
147	0x3e177a9b	0.14792864
148	0x3dc941f0	0.0982703
149	0xbe12ac42	-0.14323524
150	0x3e401865	0.18759306
151	0x3d42f9b5	0.04760142
152	0x3d9d6641	0.07685519
153	0xbcce5b9e	-0.02519017
154	0xbdce115c	-0.10061905
155	0x3e5110bb	0.20416538
156	0x3dc96e98	0.09835547
157	0xbe266bdd	-0.16252084
158	0xbcc08400	-0.023500443
159	0x3d935986	0.071948096
160	0xbc82786c	-0.015926562
161	0x3c9121f0	0.017716378
162	0xbd0304e9	-0.031987105
163	0x3e0dc430	0.13844371
164	0x3da9ce4f	0.08291303
165	0x3da645a0	0.08118749
166	0x3e12f44c	0.14351004
167	0x3e1fea8c	0.15616816
168	0x3e01fd06	0.12694177
169	0x3e099848	0.13436997
170	0x3e1940e3	0.14966159
171	0x3e0a2a48	0.13492692
172	0x3daaa160	0.08331561
173	0x3e485650	0.19564176
174	0xbcd64403	-0.026155477
175	0xbd8af971	-0.067858584
176	0x3dc5f45c	0.096657485
177	0xbe003980	-0.12521935
178	0x3e2ecd17	0.17070423
179	0xbdb2f773	-0.087386034
180	0x3d39117e	0.045182697
181	0x3c6f800d	0.014617932
182	0x3db5acb9	0.08870835
183	0x3d9590e2	0.07303025
184	0xbd6d9277	-0.058001008
185	0x3d9a61a8	0.07538158
186	0x3d5516a8	0.05202356
187	0x3e2b3c64	0.16722256
188	0x3c62e208	0.013847835
189	0x3dab8704	0.083753616
190	0x3dacc254	0.08435503
191	0x3e3ccfa4	0.18438584
192	0xbdb2a709	-0.08723266
193	0x3dd643af	0.10462128
194	0x3e9f6341	0.31130412
195	0x3e0799b3	0.13242225
196	0x3e48c294	0.19605476
197	0xbe1f1b4e	-0.1553776
198	0x3d834b57	0.06410854
199	0x3dbe88e3	0.09303453
200	0x3c371f9f	0.011176973
201	0x39ebd479	0.00044980997
202	0xbd03c88a	-0.03217367
203	0xbd9d14a7	-0.07669955
204	0xbea11ecd	-0.31468812
205	0x3da597af	0.08085572
206	0xbe1e14e6	-0.1543766
207	0x3c5f5313	0.013630646
208	0xbe46ea43	-0.19425301
209	0xbe3f0640	-0.18654728
210	0xbbf0af91	-0.007345148
211	0x3e232c5b	0.15934889
212	0xbe409698	-0.18807447
213	0x3de8dbcf	0.1137005
214	0x3e6dbf51	0.23217513
215	0x3b93cfca	0.0045108544
216	0xbe61d4f0	-0.22053885
217	0xbccf7a17	-0.025326772
218	0x3e832a56	0.25618237
219	0xbde0dee2	-0.109800115
220	0x3d02fa78	0.031977147
221	0x3f03d294	0.5149319
222	0xbca41651	-0.020030173
223	0xbd48a433	-0.048984718
224	0x3e581122	0.21100286
225	0xbce272da	-0.027642656
226	0x3bfbdf7f	0.007686555
227	0xbdee8801	-0.116470344
228	0x3e26ab2c	0.16276234
229	0x3e15aff6	0.14617905
230	0x3d4ad829	0.049522553
231	0x3d38c7d6	0.045112453
232	0xbdf3bd1e	-0.119013056
233	0xbd0c0f0f	-0.03419405
234	0x3e685d0b	0.22691743
235	0xbd803b1d	-0.06261275
236	0x3dad3a95	0.08458439
237	0x3dacefc9	0.08444173
238	0x3e26efda	0.16302434
239	0xbd73aafa	-0.059489228
240	0xbe1e5552	-0.15462235
241	0x3d6c5eb4	0.057707503
242	0x3df7c7f4	0.12098685
243	0xbda58e60	-0.080837965
244	0x3e4daa50	0.200845
245	0x3deac44c	0.11463222
246	0x3d954188	0.0728789
247	0x3ca8227b	0.020524254
248	0xbe9e7c57	-0.3095424
249	0xbe5541aa	-0.2082583
250	0xbe3edc44	-0.18638712
251	0xbcd6188d	-0.026134754
252	0xbcc4cb2a	-0.024022657
253	0xbd035ec4	-0.032072797
254	0x3e38847c	0.18019289
255	0x3df0aba2	0.11751486

model.2.bias f4 [32]
0	0x3d256439	0.040378783
1	0xbac71b45	-0.0015190622
2	0x3da15c1e	0.07878898
3	0xbde69f6b	-0.11260875
4	0xbda58133	-0.080812834
5	0xbb13d451	-0.002255697
6	0xbdb2e238	-0.08734554
7	0xbc332f9d	-0.010936645
8	0xbc0eb066	-0.008709049
9	0xbda5a425	-0.08087949
10	0xbdff8ed3	-0.124784134
11	0x3dce7b07	0.10082059
12	0x3d224852	0.03961975
13	0x3e242d8f	0.16033004
14	0x3e10e6b7	0.1415051
15	0x3cbf9085	0.023384342
16	0x3d6ce7ca	0.05783824
17	0x3c9fa402	0.019487385
18	0x3db505c0	0.08838987
19	0xbd9592c3	-0.07303383
20	0xbdc65901	-0.09684945
21	0xbc0fbfea	-0.008773783
22	0x3ced92f7	0.029000742
23	0x3baaea7f	0.0052159424
24	0x3cafbd1e	0.021452483
25	0x3cadfb30	0.02123794
26	0x3cb27145	0.021782527
27	0x3d9dd60b	0.07706841
28	0xbdd5b4ed	-0.104348995
29	0xbe0a9330	-0.1353271
30	0x3d8a7efc	0.067625016
31	0x3bf9146b	0.007601311

model.4.weight f4 [1, 32]
0	0xbe23d19d	-0.1599793
1	0xbd2b21c0	-0.041780233
2	0x3e49274c	0.19643897
3	0xbf23fd5f	-0.6405849
4	0xbda99368	-0.08280069
5	0x3dd64a09	0.1046334
6	0xbe0bc500	-0.13649368
7	0x3e8437ed	0.25823918
8	0xbda2dd55	-0.07952372
9	0xbe24344b	-0.16035573
10	0xbd501d81	-0.050809387
11	0x3e66f13e	0.22552964
12	0x3e28ef66	0.16497573
13	0x3dc67975	0.09691135
14	0x3e4a4df0	0.19756293
15	0xbe1ff652	-0.15621307
16	0x3c8d03db	0.017213752
17	0xbd972169	-0.07379419
18	0xbd0624db	-0.032749992
19	0xbe2da1d3	-0.16956262
20	0xbe13e9e5	-0.14444692
21	0x3e7c9209	0.24665083
22	0x3e65ac87	0.22429095
23	0x3d30a9d3	0.043130707
24	0xbd0e9688	-0.034811527
25	0xbc9e2d7c	-0.019308798
26	0x3cce38d4	0.025173582
27	0xbd71c732	-0.059027858
28	0xbd59b4ef	-0.053151067
29	0x3b56511b	0.0032702151
30	0xbd29e43d	-0.04147743
31	0x3dae430d	0.08508883
